…
el_save_dir': './saved_models', 'epochs': 30, 'train_batch': 2, 'val_batch': 70, 'test_batch': 70, 'grad_accum': 256, 'eval_step': 30, 'save_step': 30, 'torch_empty_cache_steps': 8, 'log_step': 10, 'lr': 2e-05, 'weight_decay': 0.01}, 'merge': {'dir': './merge_models'}, 'logs': {'dir': './logs'}}
------------ ------------
2025-06-18 18:12:35,431 - INFO - MODEL BASE MERGE : ./saved_models/train__15-06-2025_14-38-14__base_Llama-3.1-8B-Instruct_15-06-2025_06-26-46_SQuAD_Adapters//checkpoint-90/
2025-06-18 18:12:35,433 - INFO - 
Model arch:
LlamaForCausalLM(
  (model): LlamaModel(
    (embed_tokens): Embedding(128256, 4096)
    (layers): ModuleList(
      (0-31): 32 x LlamaDecoderLayer(
        (self_attn): LlamaAttention(
          (q_proj): lora.Linear(
            (base_layer): Linear(in_features=4096, out_features=4096, bias=False)
            (lora_dropout): ModuleDict(
              (default): Dropout(p=0.05, inplace=False)
            )
            (lora_A): ModuleDict(
              (default): Linear(in_features=4096, out_features=16, bias=False)
            )
            (lora_B): ModuleDict(
              (default): Linear(in_features=16, out_features=4096, bias=False)
            )
            (lora_embedding_A): ParameterDict()
            (lora_embedding_B): ParameterDict()
            (lora_magnitude_vector): ModuleDict()
          )
          (k_proj): lora.Linear(
            (base_layer): Linear(in_features=4096, out_features=1024, bias=False)
            (lora_dropout): ModuleDict(
              (default): Dropout(p=0.05, inplace=False)
            )
            (lora_A): ModuleDict(
              (default): Linear(in_features=4096, out_features=16, bias=False)
            )
            (lora_B): ModuleDict(
              (default): Linear(in_features=16, out_features=1024, bias=False)
            )
            (lora_embedding_A): ParameterDict()
            (lora_embedding_B): ParameterDict()
            (lora_magnitude_vector): ModuleDict()
          )
          (v_proj): lora.Linear(
            (base_layer): Linear(in_features=4096, out_features=1024, bias=False)
            (lora_dropout): ModuleDict(
              (default): Dropout(p=0.05, inplace=False)
            )
            (lora_A): ModuleDict(
              (default): Linear(in_features=4096, out_features=16, bias=False)
            )
            (lora_B): ModuleDict(
              (default): Linear(in_features=16, out_features=1024, bias=False)
            )
            (lora_embedding_A): ParameterDict()
            (lora_embedding_B): ParameterDict()
            (lora_magnitude_vector): ModuleDict()
          )
          (o_proj): lora.Linear(
            (base_layer): Linear(in_features=4096, out_features=4096, bias=False)
            (lora_dropout): ModuleDict(
              (default): Dropout(p=0.05, inplace=False)
            )
            (lora_A): ModuleDict(
              (default): Linear(in_features=4096, out_features=16, bias=False)
            )
            (lora_B): ModuleDict(
              (default): Linear(in_features=16, out_features=4096, bias=False)
            )
            (lora_embedding_A): ParameterDict()
            (lora_embedding_B): ParameterDict()
            (lora_magnitude_vector): ModuleDict()
          )
        )
        (mlp): LlamaMLP(
          (gate_proj): Linear(in_features=4096, out_features=14336, bias=False)
          (up_proj): Linear(in_features=4096, out_features=14336, bias=False)
          (down_proj): Linear(in_features=14336, out_features=4096, bias=False)
          (act_fn): SiLU()
        )
        (input_layernorm): LlamaRMSNorm((4096,), eps=1e-05)
        (post_attention_layernorm): LlamaRMSNorm((4096,), eps=1e-05)
      )
    )
    (norm): LlamaRMSNorm((4096,), eps=1e-05)
    (rotary_emb): LlamaRotaryEmbedding()
  )
  (lm_head): Linear(in_features=4096, out_features=128256, bias=False)
)

Model config:
LlamaConfig {
  "architectures": [
    "LlamaForCausalLM"
  ],
  "attention_bias": false,
  "attention_dropout": 0.0,
  "bos_token_id": 128000,
  "eos_token_id": [
    128001,
    128008,
    128009
  ],
  "head_dim": 128,
  "hidden_act": "silu",
  "hidden_size": 4096,
  "initializer_range": 0.02,
  "intermediate_size": 14336,
  "max_position_embeddings": 131072,
…
